…
an> net<span class="token punctuation">.</span>named_parameters<span class="token punctuation">(</span><span class="token punctuation">)</span><span class="token punctuation">:</span>    <span class="token keyword">print</span><span class="token punctuation">(</span>name<span class="token punctuation">,</span> <span class="token string">":"</span><span class="token punctuation">,</span> parameters<span class="token punctuation">.</span>size<span class="token punctuation">(</span><span class="token punctuation">)</span><span class="token punctuation">)</span></code></pre><pre><code>Net(  (conv1): Conv2d(1, 6, kernel_size=(5, 5), stride=(1, 1))  (conv2): Conv2d(6, 16, kernel_size=(5, 5), stride=(1, 1))  (fc1): Linear(in_features=400, out_features=120, bias=True)  (fc2): Linear(in_features=120, out_features=84, bias=True)  (fc3): Linear(in_features=84, out_features=10, bias=True))&lt;generator object Module.parameters at 0x7fb59472e7d0&gt;&lt;bound method Module.named_parameters of Net(  (conv1): Conv2d(1, 6, kernel_size=(5, 5), stride=(1, 1))  (conv2): Conv2d(6, 16, kernel_size=(5, 5), stride=(1, 1))  (fc1): Linear(in_features=400, out_features=120, bias=True)  (fc2): Linear(in_features=120, out_features=84, bias=True)  (fc3): Linear(in_features=84, out_features=10, bias=True))&gt;10conv1.weight : torch.Size([6, 1, 5, 5])conv1.bias : torch.Size([6])conv2.weight : torch.Size([16, 6, 5, 5])conv2.bias : torch.Size([16])fc1.weight : torch.Size([120, 400])fc1.bias : torch.Size([120])fc2.weight : torch.Size([84, 120])fc2.bias : torch.Size([84])fc3.weight : torch.Size([10, 84])fc3.bias : torch.Size([10])</code></pre><pre class=" lang
…
x<span class="token punctuation">)</span><span class="token punctuation">)</span>        x <span class="token operator">=</span> self<span class="token punctuation">.</span>fc3<span class="token punctuation">(</span>x<span class="token punctuation">)</span>                <span class="token keyword">return</span> xnet <span class="token operator">=</span> Net<span class="token punctuation">(</span><span class="token punctuation">)</span><span class="token keyword">print</span><span class="token punctuation">(</span>net<span class="token punctuation">)</span></code></pre><pre><code>Net(  (conv1): Conv2d(3, 6, kernel_size=(5, 5), stride=(1, 1))  (conv2): Conv2d(6, 16, kernel_size=(5, 5), stride=(1, 1))  (fc1): Linear(in_features=400, out_features=120, bias=True)  (fc2): Linear(in_features=120, out_features=84, bias=True)  (fc3): Linear(in_features=84, out_features=10, bias=True))</code></pre><pre class=" language-python"><code class="language-python"><span class="token comment" spellcheck="true"># å®šä¹‰æŸå¤±å‡½æ•°å’Œä¼˜åŒ–å™¨</span><span class="token keyword">from</span> torch <span class="token keyword">import</span> optimcriterion <span class="token operator">=</span> nn<span class="token punctuation">.</span>CrossEntropyLoss
…
